KMNIST-CNN-Model.pt (torch, 243958 bytes, 10 tensors)

conv1.weight f4 [6, 1, 3, 3]
0.30743405 0.26963565 -0.68987757 0.4127239 0.4315829 0.06083116 -0.564569 0.23028801
0.48181352 -0.4349547 0.21824966 0.17246121 0.20422444 0.12313063 0.24323314 0.020601112
0.36759695 -0.11266815 0.4059993 -0.10013993 -0.3777404 -0.31031424 -1.3299199 -0.57915926
-0.9610181 -0.18883234 0.12590772 -0.66751546 -0.5985259 -0.39096388 0.1609442 -0.44040787
0.43238106 0.6256015 0.4168304 0.66442823 -0.4850732 0.27504435 0.24204426 -0.64302015
0.31229398 -0.057215676 -0.106773 0.32996318 0.26151392 -0.18425672 0.116968185 -0.004216598
0.11114376 -0.24489488 -0.3879359 -0.15624653 -0.32610908 0.1892944
00000000: ff67 9d3e af0d 8a3e d19b 30bf 8c50 d33e
00000010: 6ff8 dc3e 182a 793d 9887 10bf 9fd0 6b3e
00000020: 43b0 f63e 62b2 debe d77c 5f3e ac99 303e
00000030: 3620 513e e92b fc3d 1c12 793e aac3 a83c
00000040: ab35 bc3e 8fbe e6bd 24df cf3e 2a16 cdbd
00000050: 3167 c1be 82e1 9ebe d13a aabf c843 14bf
00000060: 4805 76bf 445d 41be f4ed 003e 4be2 2abf
00000070: fe38 19bf 6b2c c8be 8ece 243e 247d e1be
00000080: 0d61 dd3e 6b27 203f cb6a d53e f817 2a3f
00000090: 845b f8be 9dd2 8c3e 73da 773e f89c 24bf
000000a0: ffe4 9f3e fc5a 6abd cdab dabd eff0 a83e
000000b0: 27e5 853e cbad 3cbe 048d ef3d 632b 8abb
000000c0: 579f e33d b9c5 7abe 899f c6be 17ff 1fbe
000000d0: c5f7 a6be 64d6 413e

conv1.bias f4 [6]
-0.06964365 -0.017280929 0.3984465 -0.012142218 -0.023356391 -0.3154289
00000000: 54a1 8ebd bc90 8dbc 2e01 cc3e 27f0 46bc
00000010: e755 bfbc e67f a1be

conv2.weight f4 [16, 6, 3, 3]
0.15852839 0.12437409 -0.046871074 0.047887694 0.0435007 -0.34545705 0.1651241 -0.3087994
-0.24818134 0.17766324 0.23434888 -0.6229972 0.335782 -0.5062527 -0.6112346 -0.09239621
-0.7215573 -0.15420686 -0.42290905 0.17989606 0.088512845 -0.3100611 0.13103074 -0.08921032
0.22296764 -0.026558066 0.023679303 0.11439884 -0.29472765 -0.43049186 0.039145544 -0.71552384
-0.08049574 -0.35938293 -1.5170115 -0.23750731 0.28570598 -0.054937176 -0.9200256 -0.10439867
-0.5348647 -0.2678793 -0.39711067 -0.4228307 -0.13494241 -0.08856307 -0.11480417 -0.0700658
-0.12189548 -0.07687492 0.13602954 0.02026821 0.036069725 -0.12692226 -0.161704 -0.45851213
-0.19648546 -0.5387629 -0.16297112 -0.035782374 -0.31258544 0.1946901 0.09403438 -0.17971283
-0.79470307 -0.20470677 -0.6112188 -0.19803445 0.4100123 -0.45602745 0.22616868 0.18044892
-0.06003119 0.21992792 0.25631005 0.051429953 -0.060609434 -0.24104127 0.2818738 -0.19071482
-0.09331477 -0.1980563 -0.39644277 0.4767615 -0.5031503 -0.042171195 0.3236189 0.0045262906
0.3431231 -0.030572327 0.35458556 -0.5677444 -0.021887437 -0.63913035 -0.036130086 0.080651
0.0783231 0.26287445 0.20406093 -0.06914916 0.11265945 0.0407299 0.009037046 -0.112168774
0.048599504 -0.01288926 -0.050745077 0.0726296 0.15103419 -0.099808246 -0.40376985 -0.28533596
-0.02196269 -0.19678995 -0.082104094 -0.14548226 0.11351758 0.21827441 -0.12280856 -0.6251499
-0.25783616 -0.12739061 -0.097711444 0.16003259 0.16746171 0.048375316 -0.007353021 0.08708603
0.0091438545 0.39527783 0.14827958 -0.2663102 -0.027034057 0.05636569 -0.2068574 -0.3732274
-0.2765433 -0.83359236 -0.2379619 0.2984028 -0.06812694 0.5194 0.43012562 0.09464898
-0.047009833 -0.61182547 -0.6966451 -0.51608926 -0.2153538 -0.10404657 0.47901922 0.1454089
-0.15546988 -0.094698146 -0.003823987 0.11216099 0.055559423 -0.017132014 0.07064354 -0.06513852
-0.071592785 0.0671648 0.057899453 0.17671423 -0.07453066 0.1826619 0.2964176 -0.11281999
-0.40963492 -0.40255827 -0.3714431 0.03472284 0.2713594 0.37292475 0.10718481 0.3356208
-0.14567104 -0.5633401 -0.6028059 -0.61266994 -0.1399245 -0.22219813 -0.16493766 -0.26702917
-0.13992286 0.31367108 0.11039568 0.40257078 0.16207911 0.14298756 0.26202282 -0.25850937
0.15076178 0.26351625 -0.6665991 -0.49858412 0.00039823013 0.07019701 0.07557879 0.20967886
0.39651948 -0.11637226 0.10783884 -0.63060004 -0.2863413 -0.3415312 -0.35161978 0.0071701626
-0.028480317 -0.11354615 0.06803047 -0.1591943 0.08120637 0.07464474 0.1330722 -0.038323857
-0.47156367 0.017818706 0.53386617 -0.38170397 -0.33211735 0.10166482 -0.09151295 -0.6245221
-0.12531945 -0.19901632 -0.024581334 0.44161275 -0.15409671 -0.2085022 0.13157743 -0.20940153
-0.53943986 -0.21499173 0.006180652 -0.07011063 -0.4678605 -0.0068802154 0.055553086 0.053803086
0.043241344 0.11957505 0.35543057 0.07818166 -0.073864296 0.30816203 -0.2869137 -0.3289976
-0.13710399 0.045102965 -0.2644312 0.17228855 -0.23491864 0.18542767 0.4155322 -0.12368747
00000000: 4455 223e d8b7 fe3d e2fb 3fbd e325 443d
00000010: ca2d 323d bfdf b0be 4b16 293e f41a 9ebe
00000020: 4023 7ebe 5aed 353e 27f9 6f3e bf7c 1fbf
00000030: 9eeb ab3e c799 01bf df79 1cbf 393a bdbd
00000040: fbb7 38bf 67e8 1dbe 8987 d8be ac36 383e
00000050: 3946 b53d 54c0 9ebe ec2c 063e e6b3 b6bd
00000060: a151 643e 4d90 d9bc 19fb c13c f049 ea3d
00000070: 8be6 96be 6e69 dcbe 1457 203d 922c 37bf
00000080: f3da a4bd 0a01 b8be 6f2d c2bf 1e35 73be
00000090: 0e48 923e ce05 61bd cc86 6bbf f8ce d5bd
000000a0: e5ec 08bf 7a27 89be 1752 cbbe 447d d8be
000000b0: 582e 0abe 8e60 b5bd 731e ebbd a87e 8fbd
000000c0: 56a4 f9bd 9970 9dbd 544b 0b3e 8409 a63c
000000d0: d9bd 133d e9f7 01be bc95 25be 1ac2 eabe
000000e0: 7c33 49be 5eec 09bf e7e1 26be 8a90 12bd
000000f0: 330b a0be d75c 473e 1995 c03d a406 38be
00000100: a971 4bbf a79e 51be d678 1cbf 8bc9 4abe
00000110: 22ed d13e 6e7c e9be c398 673e 9ac7 383e
00000120: 44e3 75bd c934 613e 123b 833e 37a8 523d
00000130: 9941 78bd 86d3 76be c351 903e bf4a 43be
00000140: d01b bfbd 45cf 4abe 8cfa cabe 151a f43e
00000150: 75ce 00bf b4bb 2cbd 60b1 a53e 4751 943b
00000160: d5ad af3e d172 fabc 3d8c b53e b257 11bf
00000170: 484d b3bc 0c9e 23bf 24fd 13bd 5a2c a53d
00000180: dd67 a03d 7b97 863e 59f5 503e 139e 8dbd
00000190: ffb9 e63d 65d4 263d 1e10 143c beb8 e5bd
000001a0: 4610 473d 7a2d 53bc 12da 4fbd d4be 943d
000001b0: b5a8 1a3e 4468 ccbd ecba cebe 8e17 92be
000001c0: 19eb b3bc 4e83 49be 3126 a8bd 4df9 14be
000001d0: e87b e83d 5483 5f3e 0e83 fbbd d309 20bf
000001e0: 1a03 84be af72 02be f01c c8bd 95df 233e
000001f0: 157b 2b3e 3225 463d 9cf1 f0bb 295a b23d
00000200: 1bd0 153c db61 ca3e 9ad6 173e cf59 88be
00000210: 8776 ddbc b6df 663d 6dd2 53be a917 bfbe
00000220: 1597 8dbe 4f66 55bf 49ac 73be 40c8 983e
00000230: 2386 8bbd 66f7 043f 6d39 dc3e 53d7 c13d
00000240: 628d 40bd 98a0 1cbf 5557 32bf 6d1e 04bf
00000250: b585 5cbe 5e16 d5bd 0242 f53e 12e6 143e
00000260: 7f33 1fbe 1af1 c1bd db9b 7abb a9b4 e53d
00000270: 4792 633d 7058 8cbc 8fad 903d 5867 85bd
00000280: 3d9f 92bd b38d 893d fa27 6d3d 93f4 343e
00000290: 88a3 98bd b90b 3b3e 0cc4 973e 2b0e e7bd
000002a0: abbb d1be 1e1c cebe ca2d bebe 8939 0e3d
000002b0: 9fef 8a3e feef be3e b683 db3d 7dd6 ab3e
000002c0: ca2a 15be 0f37 10bf 7d51 1abf f0d7 1cbf
000002d0: 5e48 0fbe e887 63be 6be5 28be 0cb8 88be
000002e0: f047 0fbe 7f99 a03e 2117 e23d c21d ce3e
000002f0: 11f8 253e 556b 123e db27 863e 575b 84be
00000300: 4c61 1a3e 9aeb 863e 3da6 2abf 6b46 ffbe
00000310: 8bc9 d039 73c3 8f3d 0dc9 9a3d 0eb6 563e
00000320: 9a04 cb3e 9454 eebd 9cda dc3d 016f 21bf
00000330: 549b 92be 2ddd aebe 8207 b4be aff3 ea3b
00000340: 8e4f e9bc e28a e8bd 8f53 8b3d d503 23be
00000350: 864f a63d 57df 983d 1444 083e 7af9 1cbd
00000360: cb70 f1be 89f8 913c 74ab 083f b46e c3be
00000370: 490b aabe a535 d03d 246b bbbd aee0 1fbf
00000380: be53 00be efca 4bbe cb5e c9bc 111b e23e
00000390: 87cb 1dbe 9a81 55be 3cbc 063e 5b6d 56be
000003a0: bb18 0abf cb26 5cbe 1187 ca3b 2996 8fbd
000003b0: 698b efbe 6e73 e1bb a28b 633d a060 5c3d
000003c0: d61d 313d c4e3 f43d fffa b53e b51d a03d
000003d0: 2a46 97bd 6ac7 9d3e 5ae6 92be 6072 a8be
000003e0: fd64 0cbe e3bd 383d 8763 87be 696c 303e
000003f0: 838e 70be c0e0 3d3e a3c0 d43e db4f fdbd

conv2.bias f4 [16]
0.07146062 -0.12339589 -0.21499403 -0.11198745 -0.06949332 0.059362095 0.15315443 0.06435098
-0.20885904 -0.31622863 -0.07753443 -0.22794086 -0.29611352 0.005154184 -0.12527522 -0.270829
00000000: f259 923d fcb6 fcbd 6527 5cbe ad59 e5bd
00000010: 8452 8ebd ab25 733d 84d4 1c3e 72ca 833d
00000020: 25df 55be b8e8 a1be 5fca 9ebd 5469 69be
00000030: 319c 97be 6ee4 a83b 2648 00be 19aa 8abe

fc1.weight f4 [120, 400]
0.22915426 -0.3495481 -0.49799925 -0.2250412 0.24934511 0.21234138 -0.109638885 -0.2705173
0.2839285 -0.08178425 0.038243677 -0.37062284 -0.19610475 0.11036693 -0.02056169 -0.016922846
-0.15548348 -0.102848075 -0.19606993 -0.29795936 -0.1121685 -0.0053371964 0.12082856 -0.1432193
0.025315136 -0.03226809 -0.031852297 -0.16525534 -0.24012794 -0.17675595 -0.07622008 -0.2753838
0.08768356 -0.14553198 0.1280867 -0.3200208 -0.39044255 0.124782994 -0.33669454 0.2149409
-0.29505706 0.19524385 -0.11984301 -0.1367573 -0.10622331 -0.2309868 -0.011337285 -0.05369824
0.15272227 0.19873077 -0.014153187 0.24908376 0.024410982 -0.20784141 0.2804114 -0.5522469
-0.308868 0.17311482 -0.38749102 0.13581729 -0.1327371 0.03950947 -0.14868663 -0.23046671
-0.32904878 0.27959397 -0.08749969 -0.33212954 -0.2964814 -0.022373935 0.024975358 -0.044910535
-0.051565144 -0.3013169 -0.07752322 -0.44644326 -0.378363 0.08329956 -0.07219879 0.043823488
-0.42107007 -0.3999637 -0.122133955 0.4977848 0.07930019 -0.53294086 -0.1730639 0.069813184
0.26573485 0.16057381 -0.2527466 -0.10205348 -0.42835608 -0.37632838 0.30034992 -0.014719182
0.019103575 0.04650679 0.05640641 0.14746492 0.0074078427 0.088444516 0.6298514 0.15295736
-0.34220058 -0.15466341 -0.004927574 0.51730156 -0.24650238 -0.24145524 -0.10383046 0.41153875
0.3592469 -0.065373875 -0.2507216 0.17837144 0.11075664 0.06498523 0.13131462 -0.18565613
0.42456868 0.29587498 0.20387596 0.053539824 -0.20359658 0.2370688 -0.2998731 -0.12643254
-0.07763961 0.32221773 0.34922352 -0.16690604 -0.07370375 -0.24441546 0.02006938 0.15176325
0.29937208 0.5800758 -0.12529378 -0.1580662 0.32598495 0.25798032 0.14847285 -0.25019535
0.20096259 0.57526743 0.34791258 0.07420216 -0.13262454 0.17316595 -0.41679826 -0.0118247215
0.005327154 -0.43640667 -0.2836948 -0.4566276 -0.24736778 0.28820547 -0.17697796 -0.50534225
-0.13675813 0.099740215 0.0038353123 0.014454667 -0.29807502 0.20176825 0.59660953 -0.081650436
-0.26901892 -0.0768772 0.14981292 0.5276295 0.29503307 0.14281482 -0.099278376 0.11753864
-0.021028368 -0.38013062 0.009618634 0.333568 0.16089523 0.14534216 -0.046587322 0.023341374
0.16455893 0.11585505 0.116366975 0.049887806 -0.16418579 -0.21639903 -0.04689173 0.04339232
0.061489638 -0.40973756 -0.09226998 0.061830524 0.22283144 0.15833057 -0.35792145 0.18420477
-0.6861455 0.08670316 0.65112257 0.18968219 -0.11926593 -0.53603816 -0.3315385 0.27253777
0.05202436 0.06928565 -0.5153616 0.034023646 0.0024383385 -0.039063938 0.32526985 -0.23448753
-0.09545341 0.14522187 -0.021303682 0.18816708 -0.20944776 -0.11345454 -0.10600793 0.09912426
-0.11587381 0.061841495 -0.03327429 0.2127118 -0.021570781 -0.022021733 -0.2763161 -0.30906847
-0.037768755 0.07755236 0.19894053 -0.27738604 0.014268111 -0.22230938 0.25575444 0.13091613
-0.032763906 0.1445866 0.024988044 0.09320172 0.16261539 -0.118581586 0.2858698 -0.31355676
0.07996733 0.2756201 -0.016582094 0.04004303 0.03947809 -0.03837491 -0.025760025 -0.040453743
00000000: 6aa7 6a3e f8f7 b2be c2f9 febe 3371 66be
00000010: 5354 7f3e 0570 593e 5a8a e0bd 3e81 8abe
00000020: 145f 913e 807e a7bd 67a5 1c3d 47c2 bdbe
00000030: afcf 48be 0f08 e23d fd70 a8bc c8a1 8abc
00000040: 1037 1fbe 03a2 d2bd 8ec6 48be 218e 98be
00000050: 99b8 e5bd a6e3 aebb f774 f73d 15a8 12be
00000060: b061 cf3c 8b2b 04bd 8e77 02bd b238 29be
00000070: 19e4 75be 83ff 34be 4619 9cbd 1bff 8cbe
00000080: 7093 b33d 5606 15be 2929 033e c4d9 a3be
00000090: 16e8 c7be 3a8e ff3d 3a63 acbe 7819 5c3e
000000a0: b811 97be 01ee 473e 4170 f5bd 1b0a 0cbe
000000b0: 9b8b d9bd ce87 6cbe 05c0 39bc b0f2 5bbd
000000c0: 3a63 1c3e 1480 4b3e c5e2 67bc d00f 7f3e
000000d0: 8af9 c73c 61d4 54be 1592 8f3e 0e60 0dbf
000000e0: f223 9ebe 0345 313e 3965 c6be b013 0b3e
000000f0: 3cec 07be afd4 213d 4f41 18be 77ff 6bbe
00000100: 1579 a8be f126 8f3e 0a33 b3bd e20c aabe
00000110: 69cc 97be 8b49 b7bc 1f99 cc3c 1cf4 37bd
00000120: f935 53bd 3546 9abe 7ec4 9ebd 3694 e4be
00000130: ccb8 c1be f698 aa3d f6dc 93bd 4280 333d
00000140: 7f96 d7be 0bc8 ccbe 5e21 fabd a6dd fe3e
00000150: 2368 a23d d06e 08bf aa37 31be 37fa 8e3d
00000160: 660e 883e 766d 243e 0168 81be 6a01 d1bd
00000170: 7d51 dbbe 1dae c0be 77c7 993e b928 71bc
00000180: 1a7f 9c3c e77d 3e3d 680a 673d 0b01 173e
00000190: 7dbd f23b 6622 b53d f13d 213f dba0 1c3e
000001a0: ea34 afbe 1660 1ebe 7d77 a1bb e06d 043f
000001b0: 1f6b 7cbe 0b40 77be 10a5 d4bd 35b5 d23e
000001c0: 36ef b73e bde2 85bd 955e 80be 01a7 363e
000001d0: 61d4 e23d fa16 853d 5777 063e a41c 3ebe
000001e0: 1161 d93e ed7c 973e dcc4 503e 934c 5b3d
000001f0: 9f7b 50be 2ac2 723e f888 99be 8877 01be
00000200: 8401 9fbd b9f9 a43e 6dcd b23e 6be9 2abe
00000210: fef1 96bd 0c48 7abe 8a68 a43c d367 1b3e
00000220: 4c47 993e d97f 143f 034d 00be 1bdc 21be
00000230: 80e7 a63e ff15 843e 4409 183e 9b19 80be
00000240: 23c9 4d3e ba44 133f 9921 b23e 4df7 973d
00000250: bace 07be 6a52 313e 9566 d5be 7abc 41bc
00000260: 688f ae3b b270 dfbe 7240 91be 18cb e9be
00000270: fb4d 7dbe ab8f 933e b639 35be 1c5e 01bf
00000280: 530a 0cbe 9944 cc3d dd59 7b3b 45d3 6c3c
00000290: 4a9d 98be 569c 4e3e 67bb 183f 5838 a7bd
000002a0: d9bc 89be cb71 9dbd 8f68 193e ba12 073f
000002b0: 930e 973e 0c3e 123e 7652 cbbd 19b8 f03d
000002c0: af43 acbc 7ba0 c2be 7a97 1d3c 6dc9 aa3e
000002d0: b8c1 243e 93d4 143e 59d2 3ebd 6936 bf3c
000002e0: 2382 283e 6a45 ed3d cf51 ee3d 2857 4c3d
000002f0: 5220 28be b597 5dbe 8b11 40bd 25bc 313d
00000300: 8fdc 7b3d 1fc9 d1be 0bf8 bcbd 0142 7d3d
00000310: ed2d 643e 6921 223e 7b41 b7be 2da0 3c3e
00000320: 3ba7 2fbf 6d91 b13d f8af 263f 0c3c 423e
00000330: b241 f4bd cc39 09bf 6abf a9be 128a 8b3e
00000340: 7f17 553d a3e5 8d3d bdee 03bf 615c 0b3d
00000350: 88cc 1f3b 8201 20bd c589 a63e 801d 70be
00000360: 147d c3bd 0bb5 143e 0f85 aebc dfae 403e
00000370: 7979 56be db5a e8bd b01a d9bd a901 cb3d
00000380: 404f edbd 824d 7d3d 9f4a 08bd 1fd1 593e
00000390: 35b5 b0bc ec66 b4bc 4e79 8dbe 393e 9ebe
000003a0: 69b3 1abd c6d3 9e3d 11b7 4b3e 8b05 8ebe
000003b0: ccc4 693c 12a5 63be 3ff2 823e e10e 063e
000003c0: 7233 06bd 820e 143e bab3 cc3c 8be0 be3d
000003d0: a684 263e e7da f2bd 875d 923e 838a a0be
000003e0: e9c5 a33d 141e 8d3e 2cd7 87bc 2904 243d
000003f0: c7b3 213d 022f 1dbd b006 d3bc d3b2 25bd

fc1.bias f4 [120]
0.08316506 -0.04257936 -0.03320094 -0.11939349 0.0070175133 -0.040113874 -0.004529675 -0.14073642
-0.019158294 0.0043493127 -0.0024025303 -0.07698631 -0.040050868 -0.06339343 0.014522878 -0.2911137
-0.18348789 -0.1760244 0.053103648 0.11174854 -0.03977345 -0.07877079 0.032032564 -0.13178979
-0.07900862 0.0043948493 -0.012829869 -0.074818745 -0.1527648 -0.33000556 -0.13715611 -0.14669049
-0.061897345 0.015163364 -0.18227059 -0.06253378 -0.27541545 -0.26907003 -0.039789476 0.036304817
0.0104471315 -0.20580862 -0.036718868 -0.2640446 0.0067849834 -0.13537674 -0.08224234 -0.14869748
-0.20302038 -0.10896889 -0.03276508 -0.12996268 0.042686854 -0.16682878 -0.11914942 -0.090728685
-0.044342373 -0.11425573 -0.03471833 -0.103881404 0.015741343 -0.025306052 -0.01654105 -0.104307145
-0.21013492 0.010535607 -0.14982042 -0.052820425 0.0073865126 -0.10767323 -0.072985426 -0.008758058
-0.0030232826 0.03131456 -0.028938906 -0.015059888 -0.023518978 -0.06373877 -0.1300612 -0.23966524
-0.027410347 -0.13071054 -0.050408036 -0.0016092354 -0.05556241 0.038123745 -0.008427612 -0.13616285
0.023402853 0.043063268 -0.26286176 0.050007075 0.0022363423 0.12374346 0.046325583 -0.20795985
0.03783053 -0.12753339 -0.25857735 -0.037879128 -0.07464695 0.05464125 -0.044329803 -0.11776533
-0.0713965 -0.14694083 -0.19178379 -0.0917305 0.13186106 0.15217896 0.024120422 -0.046503507
-0.07444868 -0.23258178 0.0101934625 -0.042704422 -0.10101667 0.021031441 -0.03887334 0.19872373
00000000: 7152 aa3d b267 2ebd b5fd 07bd 9384 f4bd
00000010: 2bf3 e53b 724e 24bd ab6d 94bb 351d 10be
00000020: dbf1 9cbc ae84 8e3b c573 1dbb 00ab 9dbd
00000030: 610c 24bd 6ad4 81bd 5ef1 6d3c db0c 95be
00000040: 40e4 3bbe be3f 34be 3683 593d 6bdc e43d
00000050: 7ce9 22bd 9452 a1bd 9434 033d e7f3 06be
00000060: 45cf a1bd ab02 903b 5f34 52bc 923a 99bd
00000070: 606e 1cbe 7df6 a8be a772 0cbe 0836 16be
00000080: 1288 7dbd c26f 783c 24a5 3abe b611 80bd
00000090: 4103 8dbe 8cc3 89be 4afa 22bd 5cb4 143d
000000a0: 722a 2b3c 7fbf 52be 8666 16bd db30 87be
000000b0: 9154 de3b 33a0 0abe ac6e a8bd 2744 18be
000000c0: 93e4 4fbe 152b dfbd ad34 06bd f014 05be
000000d0: 69d8 2e3d 2ad5 2abe 9c04 f4bd f6cf b9bd
000000e0: 59a0 35bd e8fe e9bd cf34 0ebd c6bf d4bd
000000f0: fdf3 803c a34e cfbc 1981 87bc fc9e d5bd
00000100: 9c2d 57be 8a9d 2c3c 866a 19be 3b5a 58bd
00000110: 8f0a f23b c883 dcbd 6279 95bd f57d 0fbc
00000120: 4422 46bb b243 003d 4911 edbc c0bd 76bc
00000130: dfaa c0bc 7989 82bd c32e 05be ce6a 75be
00000140: aa8b e0bc fcd8 05be a878 4ebd fbec d2ba
00000150: 6995 63bd a527 1c3d f713 0abc 466e 0bbe
00000160: 57b7 bf3c 1c63 303d d195 86be 38d4 4c3d
00000170: 998f 123b 366d fd3d e5bf 3d3d 6df3 54be
00000180: 30f4 1a3d 1d98 02be 4064 84be 2527 1bbd
00000190: 80e0 98bd 81cf 5f3d 2b93 35bd f32e f1bd
000001a0: 5438 92bd a877 16be f862 44be 33dd bbbd
000001b0: 9606 073e cdd4 1b3e 3198 c53c 767a 3ebd
000001c0: 8d78 98bd eb29 6ebe 7b02 273c d5ea 2ebd
000001d0: d4e1 cebd 214a ac3c a739 1fbd 3c7e 4b3e

fc2.weight f4 [84, 120]
0.16248763 0.06491331 -0.0027966443 0.3419272 -0.11880108 0.0075718523 -0.0939683 -0.27783167
-0.07666236 0.3654079 0.10339975 -0.42197144 0.041055314 -0.011319646 0.22992884 -0.04290359
0.027012125 0.043556903 -0.23526514 0.20022218 0.20183566 -0.26272002 -0.47268707 0.10112785
0.016257364 -0.07372287 -0.058575984 0.043934315 -0.51584387 -0.20819202 -0.29716626 -0.19839121
0.46400377 0.02181383 0.11777888 0.016120154 -0.103734195 0.041552696 -0.44624543 -0.30609897
0.038191605 0.085493855 -0.2485056 -0.2537273 0.012973031 0.25943708 -0.5336063 0.39504516
-0.14404705 0.0074891015 0.16523248 -0.23277348 -0.32622492 -0.15100886 -0.0941147 -0.23334984
-0.12502164 -0.27762792 0.29370934 -0.023702664 -0.072869286 -0.11738663 0.06467304 0.22792396
-0.045779947 -0.03354703 -0.18407199 0.29956663 -0.06315219 -0.22578105 0.045932468 -0.013947576
-0.21778062 -0.18305673 0.07715452 -0.069626495 0.027232373 0.11125298 0.2823004 0.18617801
-0.4871281 -0.36057627 -0.0121438885 0.059929725 0.2857553 0.29170775 0.15440355 -0.13054444
-0.12953015 0.23206015 0.057405274 -0.07362621 0.108489655 -0.3803512 0.12564774 -0.4134055
0.095811956 0.39439797 0.31612813 0.071798764 -0.3118092 -0.17255671 0.034133464 -0.34686378
0.13342796 0.12233747 0.054232992 0.25174737 0.123097636 -0.12466374 0.033038832 -0.0046924036
-0.23670273 0.13072954 0.18257312 0.051281955 0.20702033 -0.17840667 0.04024427 -0.11221373
0.45634842 -0.37129292 -0.3707736 -0.47017825 -0.033831436 -0.23375916 -0.020686008 -0.01805304
0.042509254 -0.11185635 0.01990642 -0.27031615 -0.033205807 -0.004263699 -0.028061047 -0.16156206
-0.15172301 -0.16362706 -0.09090039 0.28909075 -0.17858922 0.1501595 -0.20572418 0.11288143
0.18505153 -0.07834195 0.11937376 -0.027819676 -0.20647901 0.2408132 -0.23790202 -0.2814566
-0.112636805 0.13620645 -0.053261895 -0.032376707 0.18649097 0.04948469 0.0127407415 -0.19843644
-0.01450775 -0.06405761 -0.3981338 0.20170833 -0.060638975 0.1912937 -0.0052355654 0.2839285
-0.14531687 -0.669502 0.0926284 -0.16408575 0.0025011671 -0.03500857 -0.025505863 0.2583566
-0.09595389 0.33345503 -0.28926918 -0.3551588 0.06550342 0.36188415 -9.746793e-05 0.056129377
0.2617225 0.12224702 0.37624574 -0.3879228 -0.19673562 0.22173724 0.03952802 -0.064912125
-0.32151574 0.17325674 0.14192374 -0.07898519 0.118029736 -0.04060621 -0.0475903 -0.1266186
0.020981891 -0.12466164 -0.043757547 0.0097341975 -0.20969416 -0.33107084 0.08660811 -0.2964718
0.26054344 -0.01597982 0.104498446 0.43095437 -0.18699513 0.19366866 0.0122477 0.03712296
-0.056244224 -0.19783738 0.022243991 -0.04618687 0.09348441 0.21015243 0.24083824 0.32564822
0.24111496 0.07986682 -0.0023343083 0.16513826 0.2865494 -0.1608535 -0.08658506 0.08031915
0.09299683 0.33393028 0.13511857 0.03910922 0.2330854 -0.21051805 0.083154365 -0.20673884
-0.39384955 -0.03287013 -0.13440292 -0.05713886 -0.002924885 0.18903057 0.084157825 -0.27735242
-0.039026972 -0.011582152 -0.039252777 -0.22787695 0.00633318 -0.038451213 0.2568337 0.2529077
00000000: 2863 263e 45f1 843d e847 37bb 1511 af3e
00000010: fb4d f3bd 4d1d f83b 7472 c0bd f43f 8ebe
00000020: 2801 9dbd bf16 bb3e 40c3 d33d a40c d8be
00000030: 9e29 283d 0976 39bc 7772 6b3e adbb 2fbd
00000040: 8848 dd3c b968 323d 58e9 70be 0b07 4d3e
00000050: 02ae 4e3e 3d83 86be 0a04 f2be 1e1c cf3d
00000060: 2a2e 853c 04fc 96bd 5fed 6fbd 78f4 333d
00000070: 580e 04bf 4a30 55be 2d26 98be 1127 4bbe
00000080: e791 ed3e ebb2 b23c 0e36 f13d 6a0e 843c
00000090: 9872 d4bd 2933 2a3d 487a e4be 01b9 9cbe
000000a0: cd6e 1c3d 6717 af3d 4178 7ebe 8be8 81be
000000b0: d68c 543c f0d4 843e 6c9a 08bf 5c43 ca3e
000000c0: 1281 13be 2367 f53b b432 293e 2c5c 6ebe
000000d0: f406 a7be 11a2 1abe 35bf c0bd 43f3 6ebe
000000e0: ac05 00be 3f25 8ebe 1261 963e 172c c2bc
000000f0: 7e3c 95bd 6768 f0bd 4c73 843d e664 693e
00000100: c183 3bbd 9c68 09bd 5e7d 3cbe cc60 993e
00000110: ef55 81bd 2633 67be af23 3c3d 6084 64bc
00000120: e201 5fbe 3973 3bbe 3003 9e3d 5698 8ebd
00000130: 6d16 df3c 9ad8 e33d ae89 903e 73a5 3e3e
00000140: db68 f9be 749d b8be 29f7 46bc df78 753d
00000150: 854e 923e b85a 953e f71b 1e3e 71ad 05be
00000160: 8da3 04be 2da1 6d3e cb21 6b3d 57c9 96bd
00000170: d32f de3d 64bd c2be cda9 003e e3a9 d3be
00000180: 0f39 c43d 88ee c93e 8cdb a13e 3b0b 933d
00000190: 75a5 9fbe b5b2 30be 88cf 0b3d 2198 b1be
000001a0: 57a1 083e 118c fa3d 6a23 5e3d 08e5 803e
000001b0: 9d1a fc3d b44f ffbd ba53 073d bcc2 99bb
000001c0: 3362 72be f7dd 053e 73f4 3a3e 070d 523d
000001d0: 23fd 533e 3db0 36be 2dd7 243d 50d0 e5bd
000001e0: 80a6 e93e 1b1a bebe 0ad6 bdbe 34bb f0be
000001f0: d592 0abd 905e 6fbe b475 a9bc f8e3 93bc
00000200: 2f1e 2e3d f114 e5bd ca12 a33c e166 8abe
00000210: d002 08bd 80b6 8bbb 48e0 e5bc 8670 25be
00000220: 475d 1bbe da8d 27be fc29 babd b403 943e
00000230: 18e0 36be 69c3 193e 5ca9 52be 612e e73d
00000240: 267e 3d3e bf71 a0bd 3b7a f43d 17e6 e3bc
00000250: 3c6f 53be bc97 763e 969c 73be 141b 90be
00000260: 20ae e6bd b479 0b3e 2529 5abd 709d 04bd
00000270: 7df7 3e3e 75b0 4a3d 8bbe 503c ec32 4bbe
00000280: eab1 6dbc a330 83bd 32d8 cbbe a18c 4e3e
00000290: 9360 78bd 7fe2 433e 1b8f abbb 145f 913e
000002a0: f2cd 14be 7c64 2bbf f5b3 bd3d 1806 28be
000002b0: 9fea 233b 2565 0fbd acf1 d0bc 5147 843e
000002c0: 7983 c4bd 9eba aa3e 171b 94be 60d7 b5be
000002d0: a826 863d e148 b93e b267 ccb8 ebe7 653d
000002e0: 7e00 863e a55c fa3d 48a3 c03e d19d c6be
000002f0: 1075 49be 160f 633e 22e8 213d a6f0 84bd
00000300: b69d a4be 376a 313e 7554 113e fdc2 a1bd
00000310: 93b9 f13d b252 26bd 0cee 42bd 4ea8 01be
00000320: 37e2 ab3c 9a4e ffbd 1d3b 33bd 2f7c 1f3c
00000330: 11ba 56be 1e82 a9be 985f b13d 27cb 97be
00000340: f365 853e 1de8 82bc 4803 d63d 0da6 dc3e
00000350: a77b 3fbe 1451 463e 94aa 483c 3f0e 183d
00000360: 5860 66bd e295 4abe 0839 b63c 722e 3dbd
00000370: c174 bf3d 3332 573e 4d9e 763e 5dbb a63e
00000380: d7e6 763e 3791 a33d 32fb 18bb 011a 293e
00000390: 9ab6 923e c8b6 24be 8253 b1bd 5e7e a43d
000003a0: 1f75 be3d e9f8 aa3e 865c 0a3e fd30 203d
000003b0: f0ad 6e3e 0b92 57be d64c aa3d 59b3 53be
000003c0: a6a6 c9be d4a2 06bd eba0 09be 700a 6abd
000003d0: 6daf 3fbb 3b91 413e f05a ac3d 2301 8ebe
000003e0: bfda 1fbd 11c3 3dbc 85c7 20bd 9358 69be
000003f0: 9086 cf3b 057f 1dbd b57f 833e 1e7d 813e

fc2.bias f4 [84]
0.009375375 -0.1576778 -0.20839144 -0.2587348 -0.328875 -0.36835587 -0.010824547 0.027661337
-0.20728055 0.14948477 -0.118835166 -0.120196074 0.027748559 -0.15529455 -0.20532835 -0.09474309
-0.24883768 -0.06530753 -0.04053938 -0.17062363 -0.21175258 0.040826548 -0.072517484 0.12760246
-0.27831316 -0.26827922 -0.091831006 -0.131653 -0.19747232 0.034378197 0.08269923 0.15980665
0.09287295 -0.09280178 -0.12711284 -0.32125506 0.20435664 -0.22480088 0.019413427 -0.13661994
-0.152145 -0.13764885 0.103109516 0.019539608 0.023864217 -0.2653298 -0.1614062 0.19262484
-0.13457865 0.11203135 -0.17503063 -0.23428869 -0.1326 -0.19614789 0.1101429 -0.036791638
-0.039471537 -0.19675162 -0.14648026 -0.17921513 -0.15747617 -0.13123395 -0.08868919 -0.08096709
-0.051413637 -0.34255865 0.047786556 -0.21545203 -0.020780034 0.11996732 0.060446166 -0.035387408
-0.16800056 0.027817564 0.0332114 0.10377151 -0.1342492 -0.02896104 0.06210468 -0.20268728
-0.15020338 0.047460534 -0.15150796 -0.11789595
00000000: 2c9b 193c 4a76 21be 9164 55be e378 84be
00000010: 4e62 a8be 2499 bcbe 7159 31bc 079a e23c
00000020: 5a41 54be 8912 193e da5f f3bd 5c29 f6bd
00000030: f250 e33c 8905 1fbe 9841 52be aa08 c2bd
00000040: 4ecf 7ebe f4bf 85bd 9f0c 26bd f6b7 2ebe
00000050: abd5 58be bd39 273d 0c84 94bd 38aa 023e
00000060: 107f 8ebe e55b 89be e511 bcbd 0bd0 06be
00000070: 2f36 4abe 27d0 0c3d 375e a93d 5ba4 233e
00000080: 2c34 be3d dc0e bebd de29 02be 8b7b a4be
00000090: de42 513e 3432 66be e808 9f3c 19e6 0bbe
000000a0: e6cb 1bbe d2f3 0cbe 152b d33d 8711 a03c
000000b0: e47e c33c 4fd9 87be ab47 25be 723f 453e
000000c0: fcce 09be b170 e53d 3b3b 33be 60e9 6fbe
000000d0: 4bc8 07be feda 48be 9a92 e13d d4b2 16bd
000000e0: e8ac 21bd 4279 49be ecfe 15be 2c84 37be
000000f0: 6f41 21be 3162 06be aea2 b5bd 13d2 a5bd
00000100: 1b97 52bd d963 afbe d6bb 433d 759f 5cbe
00000110: e43a aabc 6db1 f53d 6696 773d 63f2 10bd
00000120: 5708 2cbe a9e1 e33c ad08 083d 2886 d43d
00000130: 9f78 09be b43f edbc 7a61 7e3d 418d 4fbe
00000140: eace 19be fa65 423d e724 1bbe 6f73 f1bd

fc3.weight f4 [10, 84]
0.14272542 -0.18316177 0.041063335 -0.008968012 0.19410285 0.026640162 0.07660429 -0.46145222
-0.52885705 0.14592594 -1.4522159 -0.48619956 -0.33814934 0.18319173 0.18768847 -0.12036953
0.23700501 -0.029352816 -0.14870614 -0.5622098 0.0051845624 -0.48733643 -0.14235552 0.062446523
-0.4914938 -0.6254759 -0.40081102 -0.30245292 0.15410587 -0.60494214 0.10850625 0.097358465
0.07372839 -0.6582653 -0.16898164 -0.24147268 0.060297675 -0.3271657 0.10381872 -0.4862692
0.11463761 0.15260613 0.16525754 0.057473756 -0.293351 -0.11151462 -0.5637397 -0.3708568
-0.14831412 -0.8759374 -0.028022343 0.23831607 -0.4389347 -0.20487009 -0.29651257 -0.39202112
-0.6593388 -0.20966177 0.113164775 -0.079493046 -0.3170032 0.056942813 -0.35147828 0.10927632
0.21451631 -0.2750319 -0.31468913 -0.27701977 -0.8313579 -0.3770035 0.2305968 -0.16309315
-0.32123035 0.1750589 -0.18617512 -0.52242446 -0.32596004 0.07236678 -0.0666371 -0.13487852
-0.24956928 0.17213087 -0.44806674 -0.7606002 0.23421046 0.015726306 0.14862235 0.102992415
-0.2586585 -0.7291712 -0.71871907 -0.43703192 0.18617053 -0.14529604 -0.08513402 -0.27949798
0.055850793 -0.28635496 -0.2534727 -0.30981672 -0.3760599 0.15215681 -0.3314478 0.03614224
-0.014171829 -0.032519415 -0.36098853 -0.24545513 -0.43157357 -0.69837886 0.08302087 0.008721357
0.21687108 -0.67035913 -0.40945756 -0.14304556 -0.0032649264 -0.6731114 0.10579221 -0.28334752
0.22920987 -0.2702337 -0.039808422 -0.18582647 -0.5742124 -0.5089838 -0.43852568 0.08463811
0.15564854 -0.33132043 -0.21556973 0.122057885 0.11651757 -0.20724007 -0.5018531 0.13995072
0.11273183 -0.677963 0.11315424 -0.2911912 -0.31466648 -0.27647516 -0.63228667 -0.005529554
-0.52706474 0.27095503 -0.028983755 0.18341482 0.56391865 0.2356232 0.0006383102 0.1234178
-0.19423749 0.23393442 -0.31239456 0.41384542 -0.10903753 -0.34983438 -0.027448636 -0.05343326
-0.26180768 -0.28579766 0.014946434 0.09064449 -0.008625924 -0.30296773 -0.010573225 -0.43228975
-0.28258455 0.18227723 -0.057083573 -0.42097312 -0.29397336 -0.4887593 0.3372955 -0.3142002
-0.14889821 -0.7503009 -0.022385202 -0.47378403 0.07634329 -0.2914032 -0.6696576 -0.14156356
-0.47837302 -0.18332519 0.048329063 0.21882157 -0.12737875 0.23266093 -0.17649986 -0.23127212
-0.47776762 -0.04574179 -0.05429194 -0.4124889 -0.2056577 0.26672098 0.054211054 0.06666654
0.11534489 -0.17912674 0.10628026 -0.6169234 -0.15504844 -0.11405926 -0.08925683 0.26119137
-0.356495 -0.27291545 -0.7302578 -0.18974027 -0.028690474 -0.5474265 -0.048175063 0.16007926
-0.56099606 0.13502164 -0.4359243 0.16522595 -0.23971769 -0.18282479 -0.287485 -0.46201184
0.25596988 0.05667165 0.07263216 -0.04860762 -0.26024434 -0.28050116 -0.61439717 0.2063252
-0.48434705 0.00458485 -0.1808811 0.03187538 0.013353868 0.13714395 0.09020666 -0.14299485
-0.29122344 -0.5008851 -0.10888428 0.16512017 0.20416127 -0.24424154 0.011207457 -0.32950032
0.04521661 -0.15155584 0.12656821 -0.024491936 -0.30380824 0.28564745 -0.31545722 -0.42646715
00000000: 9d26 123e c28e 3bbe 0732 283d 92ee 12bc
00000010: e6c2 463e 783c da3c b6e2 9c3d 7743 ecbe
00000020: 2d63 07bf 9c6d 153e 36e2 b9bf 26ef f8be
00000030: e921 adbe 9d96 3b3e 6831 403e 4d84 f6bd
00000040: 71b1 723e 5175 f0bc 6c46 18be fbec 0fbf
00000050: 43e3 a93b 2984 f9be a5c5 11be edc7 7f3d
00000060: 13a5 fbbe 301f 20bf 1a37 cdbe 1cdb 9abe
00000070: eecd 1d3e 7ddd 1abf 8638 de3d e063 c73d
00000080: e9fe 963d 1384 28bf 8609 2dbe 9d44 77be
00000090: b2fa 763d 4382 a7be e99e d43d 47f8 f8be
000000a0: 20c7 ea3d c844 1c3e 4639 293e 9a69 6b3d
000000b0: 1a32 96be c761 e4bd 3f51 10bf f1e0 bdbe
000000c0: a8df 17be 6f3d 60bf 1d8f e5bc 2109 743e
000000d0: 0dbc e0be 77c9 51be 7fd0 97be feb6 c8be
000000e0: 6dca 28bf 93b1 56be efc2 e73d 40cd a2bd
000000f0: 3e4e a2be de3c 693d f6f4 b3be 43cc df3d
00000100: 2aaa 5b3e fbd0 8cbe ef1e a1be 89d5 8dbe
00000110: dfd3 54bf 9a06 c1be 9121 6c3e e401 27be
00000120: 4e78 a4be a442 333e b1a4 3ebe 9cbd 05bf
00000130: 3ce4 a6be 0935 943d 0879 88bd 981d 0abe
00000140: 178f 7fbe 1343 303e 0169 e5be b2b6 42bf
00000150: ded4 6f3e 74d4 803c 7530 183e b0ed d23d
00000160: e36e 84be f7aa 3abf f9fd 37bf a6c2 dfbe
00000170: 7da3 3e3e 7cc8 14be bf5a aebd 5c1a 8fbe
00000180: cdc3 643d 1e9d 92be 2cc7 81be 4ca0 9ebe
00000190: ec8a c0be ffce 1b3e 87b3 a9be e309 143d
000001a0: f630 68bc 1433 05bd 7dd3 b8be 9758 7bbe
000001b0: 36f7 dcbe f5c8 32bf d906 aa3d 06e4 0e3c
000001c0: 7413 5e3e a89c 2bbf 6ca4 d1be 897a 12be
000001d0: 60f8 55bb 0751 2cbf 96a9 d83d ed12 91be
000001e0: feb5 6a3e 125c 8abe 280e 23bd 4b49 3ebe
000001f0: 95ff 12bf c34c 02bf 7086 e0be bf56 ad3d
00000200: 5562 1f3e d5a2 a9be 50be 5cbe 7cf9 f93d
00000210: c4a0 ee3d be36 54be 7279 00bf 3e4f 0f3e
00000220: f2df e63d fc8e 2dbf 69bd e73d 0317 95be
00000230: f71b a1be 278e 8dbe 8add 21bf 4331 b5bb
00000240: b7ed 06bf 9eba 8a3e 576f edbc 18d1 3b3e
00000250: f95c 103f 3547 713e 4654 273a 79c2 fc3d
00000260: 31e6 46be 818c 6f3e 2ef2 9fbe 8ce3 d33e
00000270: 124f dfbd 7e1d b3be f6db e0bc d6dc 5abd
00000280: a80b 86be 1254 92be e3e1 743c d2a3 b93d
00000290: bf53 0dbc 961e 9bbe 523b 2dbc 1555 ddbe
000002a0: ecae 90be e2a6 3a3e 77d0 69bd ca89 d7be
000002b0: ad83 96be a93e fabe ffb1 ac3e d9de a0be
000002c0: c678 18be b813 40bf 2c61 b7bc d293 f2be
000002d0: df59 9c3d cd32 95be ae6e 2bbf 0af6 10be
000002e0: 4fed f4be 99b9 3bbe b2f4 453d c312 603e
000002f0: 936f 02be ab3e 6e3e 61bc 34be 99d2 6cbe
00000300: f59d f4be be5b 3bbd 3a61 5ebd bf31 d3be
00000310: ef97 52be a78f 883e 690c 5e3d 7888 883d
00000320: f139 ec3d 006d 37be 77a9 d93d b1ee 1dbf
00000330: 05c5 1ebe e797 e9bd 49cc b6bd e0ba 853e
00000340: 8386 b6be 93bb 8bbe 2df2 3abf 464b 42be
00000350: 4908 ebbc 2524 0cbf 3753 45bd d1eb 233e
00000360: 709d 0fbf 1d43 0a3e 7831 dfbe fe30 293e
00000370: 8e78 75be 6c36 3bbe 3c31 93be d18c ecbe
00000380: 7c0e 833e 8820 683d 2bc0 943d c918 47bd
00000390: bf3e 85be d99d 8fbe 2249 1dbf ea46 533e
000003a0: 56fc f7be 823c 963b e538 39be c28f 023d
000003b0: 2fca 5a3c 776f 0c3e 45be b83d 3e6d 12be
000003c0: 3d1b 95be 023a 00bf b9fe debd 4315 293e
000003d0: a70f 513e 741a 7abe 7b9f 373c 44b4 a8be
000003e0: 0d35 393d 7431 1bbe 199b 013e 50a3 c8bc
000003f0: c18c 9bbe 6240 923e 9c83 a1be e759 dabe

fc3.bias f4 [10]
-0.035395678 -0.13719052 0.3151061 -0.034440655 -0.07481429 -0.34737873 0.037459537 0.10470529
-0.026718188 0.0030944217
00000000: 0ffb 10bd ac7b 0cbe 9655 a13e a511 0dbd
00000010: 3c38 99bd a0db b1be 2c6f 193d ba6f d63d
00000020: 1ae0 dabc c8cb 4a3b
